evaluation/exp1_pretrain_transformer/pretrain_model.pth (torch_old, 443110 bytes, 84 tensors)

encoder.weight f4 [10, 48]
00000000: 26ec 183e ab5a 9dbd b6dd b6bd 8b1e b43c
00000010: d57b 6e3e be21 59bd 72ba a9bd f716 c6bd
00000020: e1eb a9bd e7ec c2bc 8b8c 1abd 3694 4c3e
00000030: ba22 8d3d 7876 9c3d ceb6 01be 1bb0 d63c
00000040: c15d 493e c844 36be 4acb 40be 247e 1b3e
00000050: 430e 68be ce59 d73d e7cd 3cbd ba2b 9b3e
00000060: d5f0 0d3e 3735 603d a473 babd 117f bdbd
00000070: dd9f b83d ef38 d5bd b66f 82be a34b 52bd
00000080: 5fcb 44bb 3a7e 7e3e edd7 5c3c c51d 363e
00000090: 88ca 333e 53f5 aebd 4128 17be 9970 adbd
000000a0: 2dad e23d 86c6 59be a08a b7bd 2953 9a3d
000000b0: ea69 debc 29bc 383e 1862 a63c d5f1 663e
000000c0: a61b 683e 2f5a 0d3e c2e1 afbd 4080 85be
000000d0: 7e9f 423e 05ed 883d b072 01bf 4169 a3bd
000000e0: 547a 6c3e effa b53e ec38 ba3e 453d c8bc
000000f0: 9e58 af3e 2d52 1b3d 8d30 b8bd 73aa 73be
00000100: 87f3 943e 1872 ab3c e855 e8be 8ed7 80be
00000110: ebb1 513e 1ade ba3e dd0d 813e dcf7 cf39
00000120: e211 653e d77b 8e3e 4402 72bd 1e06 4dbe
00000130: 635e 6c3e ff5f 07bd 4d8c f4be d221 6dbe
00000140: 15e7 ac3e d4a2 883e 9896 7d3e 8719 84bd
00000150: f2de b23e c7d2 d33d 2fb3 d2bd 190e 0abe
00000160: f034 ef3d bef5 fcbc 7591 f1be def8 9bbe
00000170: 240f 483e 3dd7 573e 4688 d53e 39b7 1abd
00000180: d9a5 adbd 9a74 83bb 2e1f 0f3d 7c69 4c3d
00000190: 4e2d bcbc 60bf ba3d ff44 81be bbce d9be
000001a0: eaf8 15be a79b f13c 514a 8b3e df3c a4be
000001b0: 5e12 10be 0bbf ad3d dc51 933e 2bc0 793d
000001c0: 68e7 58bd 9516 cb3d 0990 4bbe c8f9 08bf
000001d0: 8794 8fbe ea26 983d d721 d73d bf66 bbbe
000001e0: 350f ae3d 1fe4 e43d ca61 3f3d 45c0 ac3e
000001f0: 5c75 c33d 1b42 8f3b ca17 2dbe a0d5 dcbe
00000200: 3de1 ccbe f17e 49be 1b62 7abc 8884 d1be
00000210: 9f56 04be 839e 0ebe 0a34 4a3e 4fb8 a93e
00000220: eba5 c93c 8414 83bd 5df3 343c c39c 0dbf
00000230: 9d60 e2be a743 19be 5663 dc3d 1012 dabe
00000240: 6f3c 2b3c ae60 c03d 7a10 0abe 9a3e bc3d
00000250: 9fcb 253e 515a b9bd 6759 253d 41c5 2e3d
00000260: 769d 94bd e6ff fbbc c9a6 49bd 9280 1dbe
00000270: 5fbd e1bd 73ff a8bc 33b8 dd3d 17ef 4b3c
00000280: f572 c2bd 59d9 9e3d 088f 163d ac18 a4bd
00000290: 7487 ef3c 6602 273d 270b d1bd 52e8 0abd
000002a0: d604 dcbc 9a77 abbd f6ae 86bd 44c9 23bc
000002b0: 4dc3 083e 9082 7e3a da45 93bd c90b 563d
000002c0: 8e0c e8bd a551 04bd b68f e73d 4e07 863d
000002d0: 1857 52bd abe0 c83b c2a9 243d 216d bbbd
000002e0: 8f86 0abe 81f5 8bbd c824 21bd 091b a33d
000002f0: af8e 063e 03ec 313d e366 ab3d 0afb afbd
00000300: 56c0 ab3d 4be6 723d 0e4a 8abc fc98 28bd
00000310: 6ced 313d 1e27 75bd d324 443d ee9b 013c
00000320: a543 cabd 0a24 e73c fde7 343d 556c 38be
00000330: c94c adbc 493d d13d d35f ce3d 29a1 423d
00000340: af16 263c e69c 0bbd 3f5e a6bd 28c6 e8bd
00000350: 116e d53b c615 683c 352e 0fbd 331f e8bc
00000360: 94be 85bd f783 bcbd 2199 083d e426 2b3e
00000370: f880 5ebd e34b 03be dfd4 083e 61e7 1c38
00000380: b7d8 84bd 1543 70bc ba65 73bc ba03 d73c
00000390: 26e3 323d 9b3a 86bd 035a 7a3d 091b d83d
000003a0: d9fe 023d 0956 b83c f91e b9bc b65e 53bd
000003b0: 9a5f 58bd c243 0f3d e871 ba3b 74fd 15be
000003c0: 2ba7 9dbd daff ab3e 20b2 6b3e 6c75 55be
000003d0: 6927 34bd 4a2e c63e be42 c9bd f5c0 40be
000003e0: b671 85be 7a3e 7ebe 8d98 cabe 245f 9e3e
000003f0: 19d7 80bd 0e44 4a3d 839e 2a3e 58e8 bcbc
0.14933833 -0.07683309 -0.08929007 0.02198722 0.23289426 -0.053010695 -0.08287515 -0.09672349
-0.082969435 -0.023794604 -0.03773169 0.19978413 0.06891389 0.076397836 -0.1266739 0.02620702
0.1966467 -0.17799675 -0.18827549 0.15184838 -0.2266169 0.10515176 -0.0460948 0.30306798
0.13861401 0.05473825 -0.09104088 -0.092527516 0.090148665 -0.1041125 -0.25475854 -0.051341664
-0.0030028445 0.24852839 0.013479215 0.17784794 0.17557728 -0.08542886 -0.1476145 -0.08468742
0.11068187 -0.21267137 -0.089619875 0.07535393 -0.027150113 0.18040527 0.020310447 0.22553189
0.22666797 0.13803934 -0.08587982 -0.2607441 0.19006154 0.06685833 -0.50565624 -0.0797906
0.2309354 0.3554301 0.36371553 -0.024443278 0.34247297 0.037920166 -0.08993635 -0.2379549
0.29092047 0.020928428 -0.4537804 -0.25164455 0.20478027 0.36497575 0.2520589 0.00039666786
0.22370103 0.27828857 -0.059084192 -0.20021865 0.2308288 -0.033050533 -0.4776329 -0.23157433
0.33770052 0.26686728 0.24764478 -0.064501815 0.3493572 0.10342937 -0.10288083 -0.1348194
0.11680019 -0.030878898 -0.47181287 -0.30463308 0.19537026 0.210782 0.4170553 -0.03777239
-0.084788986 -0.0040117027 0.034941845 0.049905285 -0.022970822 0.09118533 -0.25247952 -0.42540535
-0.14645734 0.029493166 0.27205136 -0.3207769 -0.14069507 0.08483704 0.2877339 0.06097428
-0.05295506 0.099164166 -0.19879164 -0.53506136 -0.28043005 0.07429297 0.10504501 -0.36601827
0.08498994 0.11176323 0.04672412 0.3374044 0.09543869 0.004371894 -0.16903606 -0.43131733
-0.40015593 -0.1967733 -0.015282179 -0.40921426 -0.12923668 -0.13927655 0.19746414 0.3314843
0.024615249 -0.064003974 0.01104435 -0.55317324 -0.44214335 -0.14967214 0.10761134 -0.42591906
0.01045142 0.0939344 -0.13482848 0.09191628 0.16190957 -0.090504296 0.040368464 0.042668585
-0.07256596 -0.03076167 -0.049231324 -0.15381077 -0.11022448 -0.02062962 0.10826149 0.01244714
-0.094945826 0.077562995 0.0367575 -0.08012518 0.029239394 0.04077377 -0.10207205 -0.033912964
-0.026857775 -0.083724216 -0.0657634 -0.009996716 0.13355751 0.00097087864 -0.071910575 0.052257333
-0.113305196 -0.032304425 0.113067076 0.06544362 -0.05135259 0.006130298 0.040200956 -0.09151674
-0.13527893 -0.068339355 -0.039341718 0.07964141 0.13140367 0.04343797 0.083692335 -0.08592804
0.083862945 0.059301656 -0.016881015 -0.041161522 0.043439314 -0.05985176 0.04788668 0.007910712
-0.098761834 0.028215427 0.044166554 -0.18010075 -0.021154778 0.10216767 0.10076871 0.047516976
0.010137244 -0.034085177 -0.08123445 -0.1136592 0.006513365 0.014165347 -0.034956176 -0.02833519
-0.065304905 -0.09204858 0.03334916 0.16714054 -0.054322213 -0.12821917 0.13362454 3.7408787e-05
-0.064866476 -0.014664431 -0.0148557965 0.026246894 0.043673657 -0.06554147 0.061120998 0.105520315
0.031981323 0.022501962 -0.022597777 -0.051603995 -0.052825548 0.03497673 0.005689848 -0.14647466
-0.076979004 0.33593637 0.23017168 -0.20845574 -0.043982897 0.3870719 -0.09827183 -0.18823607
-0.26063317 -0.2482852 -0.39569512 0.30931962 -0.062910266 0.04938131 0.1666203 -0.023060009

encoder.bias f4 [10]
00000000: a043 0cbf bb26 5c3d 9e61 a5bd 98a4 6a3f
00000010: dcef 7c3e 614b 1a3e 1860 44be 3969 16be
00000020: 338b 14be 9c55 b63e
-0.5479069 0.053747874 -0.080752596 0.916574 0.24700874 0.15067817 -0.19177282 -0.14688577
-0.14506225 0.3561219

transformer_encoder.layers.0.self_attn.in_proj_weight f4 [30, 10]
00000000: f243 4a3d 675a 3fbd 7770 b1bc ea91 2f3e
00000010: cc8a edbc e90b 9a3d b8f4 903c 5233 56be
00000020: 98b1 93bd f90c fd3b c574 58bd 16fb 2cbd
00000030: 802f 4a3d 25b3 123e e0e9 ab3d f3c1 833d
00000040: a15f 0cbd b38c a0be e86a 0d3d 9e4a 843d
00000050: 6da7 68bd b0e2 6b3d 8589 3b3d aa0d f5bd
00000060: 12ab 08bd 47b8 84bd 379e 14bb 8147 673e
00000070: 0870 a43d 5c97 a43d 120a 723d 2d53 12bd
00000080: 0bf7 133d 7f4b ea3d ad24 febc ba21 823d
00000090: eacd db39 2675 6cbe 6c2e 483d 6839 7a3d
000000a0: 0669 20be 3600 293d 4d44 2fbd 2a77 0ebe
000000b0: c1ab 06bd 6c5b 2fbd df3e 0fbd 48c5 453e
000000c0: d00a 29bd 7140 9b3d 76ed cdbd 5100 e83d
000000d0: 5d0e 8a3e f106 23bc be18 08be ef4d 3b3e
000000e0: 63a5 083e 7e18 543e f4bc 0abd 951e 143d
000000f0: 613b 1f3e 2c91 563c a46a e6bd 4134 a93d
00000100: 259b dcbd 2b2d 0dbe 10eb a2be 917c 43bc
00000110: f290 2e3e 29ff 26be 1d11 19be 6e33 f33d
00000120: 897a 053e b2e3 173e b028 993d 3592 bf3d
00000130: 9e56 81be 0c4e 233e 4ca4 f13b 6c9d 9cbd
00000140: 59bc e13d fab3 97bd fd8b 9bbd 08e6 37bd
00000150: f9e6 e73d 9065 fdbc 9fba 653e ce4b c6bd
00000160: 8bf7 4abd 459d 26bb bf82 2e3e 4ee1 0dbe
00000170: a967 db3d b3cd 253d dfb5 77bd 6cca b7bd
00000180: 76d9 5a3e 5aa7 783c a463 13be 62f2 5fbe
00000190: 3ef7 fc3d 7bc4 a53d cf44 43be 39b0 e33c
000001a0: d702 f0bd 0e10 463d 8af6 64be 7bef 58bd
000001b0: 85ff f13c 29f5 8cbe ef48 b1bc 2b27 f93d
000001c0: 5287 09bd 631c 9fbe 51b6 df3d 71dd ecbc
000001d0: 2e44 bebd b90d 8b3d 0a3d 2a3d 8e29 74bd
000001e0: 959a 3a3d 8db9 b73c d7ae 1ebe c6de d13d
000001f0: 21d9 a1bc bf2e 8d3d dc95 32be 5862 afbd
00000200: 4482 2f3d 2934 48be 1144 163d d284 30be
00000210: 2184 50bd 1bc5 953d f2aa 0dbe 6ef4 a2bd
00000220: 934c c83d 0985 25be 379c 41be 0129 6ebe
00000230: 3e7b ba3d 3806 c43c 286a cbbd 8a57 a8be
00000240: 8e00 9ebd de59 0cbe 4816 15bd 0a0c 29bd
00000250: 50c5 0dbe 36d0 a6be 76c9 5a3d 2ae7 e1bb
00000260: 2699 e2bd eaa0 dc3e 8363 eebd a37a afbd
00000270: cea1 143d 398e 2fbc d06c 5ebc d586 a83e
00000280: e474 bd3d 6ee8 e43c b81c cbbd 1dfe d83d
00000290: 93d0 833d b43f cdbd 0ee0 333d d889 aa3b
000002a0: be9b f7bb 9838 123e 8092 f23d e1b5 b73d
000002b0: 6853 6f3e bd60 c2be 6f67 2c3e e928 6f3d
000002c0: 9871 be3c 6676 033e f132 3a3d a264 bebe
000002d0: b8d4 933e dd56 0b3e af93 6c3e 7c8d 9ebd
000002e0: ab06 a73d 21d2 e63a c6df b03d 0646 4f3e
000002f0: fb24 463d abc1 2ebe 8b1f d6bc 8e6d 2cba
00000300: 01d2 b2bd 5645 27be d861 243e 793e cabc
00000310: f873 bcbc 8715 e6bc 7c72 b2ba 71fc 53be
00000320: 569a 5a3e d4fd fc3c 6ae5 693c 3456 92be
00000330: 6b70 98be 001c a53d e69f 773e b809 2c3e
00000340: a77f 57bc f6d0 2c3e 44f3 ce3d 43ca 59bc
00000350: 0788 fabd b17d 29be 1368 d1be 281a 373e
00000360: 497a 1c3d ed29 4abe 5db9 2f3d 0174 62be
00000370: 4146 67bd 7578 153e 7e0a 08be 9dbc 71be
00000380: 27df 3f3e 1e82 913c c5f7 ebbd ebfc e9bc
00000390: e7b6 0a3d 69ba 66bd f618 af3d 5427 e2bc
000003a0: 1cc3 03be 6e98 2c3f 78b4 193e b70a 90be
000003b0: 397f 04be f2c5 103e 2b2c a3be 6fdd 033f
000003c0: 50f7 d4be 8ace 8b3d 50d3 553d 010f f33e
000003d0: f065 ac3e 168e cd3e 7709 d73c 3c1d 7abe
000003e0: 7c76 523e 496e 8c3e b8de a3be fbdf 17be
000003f0: 3ce6 05be b541 293f bac8 9cbc 20e9 8cbd
0.049381204 -0.046717074 -0.021660073 0.17145506 -0.028996848 0.07521803 0.017694816 -0.20918015
-0.07211608 0.0077224937 -0.052845735 -0.04223164 0.049361706 0.1432615 0.083942175 0.06433477
-0.034270886 -0.31357345 0.034525782 0.064595446 -0.056800295 0.057589233 0.045785446 -0.11965497
-0.03336627 -0.064804606 -0.0022677311 0.2258587 0.08029181 0.08036682 0.059091635 -0.035723854
0.03612427 0.11440181 -0.031023348 0.06354089 0.00041924353 -0.23091564 0.048872396 0.061089903
-0.15665063 0.041259967 -0.042789746 -0.13912645 -0.03287864 -0.042811796 -0.034972068 0.19313538
-0.041270077 0.075806506 -0.10055058 0.11328185 0.26964083 -0.009950385 -0.13290688 0.18291448
0.1334434 0.20712468 -0.033871606 0.036161978 0.15549995 0.013096135 -0.11250809 0.0826192
-0.10771779 -0.13786761 -0.31819963 -0.011931554 0.1704748 -0.16308273 -0.14947934 0.11875044
0.13035025 0.14832953 0.07478464 0.09354059 -0.25261396 0.15947741 0.007374322 -0.07647213
0.110222526 -0.07407375 -0.0759506 -0.04489711 0.113233514 -0.030932218 0.22434472 -0.09682427
-0.04955248 -0.002542333 0.17042063 -0.13855478 0.10713131 0.040479373 -0.06047618 -0.08974156
0.21372017 0.0151766185 -0.14393479 -0.21869805 0.12351845 0.08094116 -0.19069217 0.02779399
-0.11719292 0.048355155 -0.22359672 -0.05296276 0.029540787 -0.27530792 -0.021641223 0.12165674
-0.033576317 -0.31076345 0.10923446 -0.028914185 -0.09290348 0.06789727 0.041562118 -0.059609942
0.045557577 0.022427345 -0.15496384 0.10247569 -0.019756855 0.06893682 -0.1743998 -0.085636795
0.04284884 -0.19551148 0.036686007 -0.17238167 -0.050907258 0.073129855 -0.13834742 -0.079567775
0.097802304 -0.1616403 -0.18907247 -0.23257829 0.09105538 0.023928747 -0.09932357 -0.32879287
-0.077149495 -0.13706157 -0.036398202 -0.041271247 -0.138448 -0.32580727 0.053414784 -0.006894012
-0.11064367 0.43091518 -0.11640074 -0.08568313 0.03628712 -0.010715061 -0.013575748 0.3291537
0.09250811 0.027942862 -0.09917587 0.10595343 0.06436267 -0.10021916 0.043914847 0.0052044205
-0.0075564077 0.14279401 0.11844349 0.089702375 0.2337166 -0.3796443 0.16836332 0.058388624
0.023247525 0.12838134 0.045458738 -0.37186152 0.2887323 0.13607354 0.23103212 -0.0774183
0.08155569 0.0017610231 0.086364314 0.20241556 0.04837511 -0.17066066 -0.026138088 -0.0006577604
-0.08731461 -0.16335043 0.1605295 -0.024687992 -0.023004517 -0.028086437 -0.0013614441 -0.20701768
0.21347937 0.030882753 0.014275888 -0.28581393 -0.29773268 0.08061981 0.2418209 0.16800582
-0.013152993 0.16876587 0.10104993 -0.013292852 -0.122329764 -0.16551854 -0.40899715 0.17881072
0.038202558 -0.19742556 0.042901386 -0.22114564 -0.056463484 0.14596732 -0.13285252 -0.23607107
0.1873747 0.01776224 -0.11521868 -0.028562983 0.033865836 -0.05633012 0.08549683 -0.027606644
-0.12867397 0.6742009 0.1501025 -0.28133175 -0.12939157 0.1413801 -0.31869635 0.51509756
-0.41594934 0.068265036 0.052203476 0.47472385 0.33671522 0.40147465 0.02624963 -0.24425215
0.2055301 0.2742789 -0.32005858 -0.14831536 -0.13076109 0.66115886 -0.019138683 -0.068804026

transformer_encoder.layers.0.self_attn.in_proj_bias f4 [30]
00000000: 2d4c 9abe d100 95be 9205 20be b234 9fbd
00000010: e651 d0be 99e6 b73e 5d87 d03e ebd5 cdbe
00000020: 4e56 b8be ab06 c2be faeb c5bc d970 ef3a
00000030: 0de7 cf3c 71ed 87bc 784f 733b dd48 023c
00000040: 6f57 95ba 293a 02bd bca7 233b 610d 90bb
00000050: a5a3 3d3e bc1a df3d af5a 39be eabf db3e
00000060: 83be e13e 7c23 bf3e f927 0bbf acbf ef3b
00000070: 8dc8 7f3e 99c6 e0be
-0.30136243 -0.29102185 -0.15627125 -0.07773723 -0.40687484 0.3591812 0.40728274 -0.4020227
-0.36003345 -0.37895712 -0.024160374 0.0018267884 0.025378728 -0.016592713 0.0037126224 0.007951942
-0.0011393855 -0.031793747 0.0024971804 -0.004396126 0.18519457 0.10893771 -0.18101 0.42919856
0.4409066 0.3733176 -0.5435787 0.0073165502 0.24978848 -0.43901518

transformer_encoder.layers.0.self_attn.out_proj.weight f4 [10, 10]
00000000: 4ba5 fcbd b639 493e 6922 1cbd d4df 4bbe
00000010: 7efe 9bbe 9cc8 863c f7c9 33be 06fb 58be
00000020: 88e2 87bd d72c 2fbe 27f3 f7bd 302d 96bc
00000030: 088e 8cbc 15cc c6bd a92f d1bd b968 423e
00000040: 3def efbd e6fa f8bd e662 4cbe 2abf a93d
00000050: 81fc 52bc f4e7 b4be b1b4 813e 05d8 08be
00000060: 9d35 a63d a24d 1bbe e187 c03d 0d63 a73e
00000070: 1db0 b63e a418 b93d 7b75 bfbd 20f1 d2bd
00000080: 6a59 56be 6f39 5a3e dd67 893e 08a9 993e
00000090: 4b8e b0be 931b 03be 5763 be3d eabc 69be
000000a0: 8b30 20bc 3a75 b83d a112 55be 626f 2b3f
000000b0: dd39 213f f63e 1d3f cd18 0ebf 2a88 47be
000000c0: 32f6 583e c02f babe 28fa 003e 2160 ca3d
000000d0: cd44 ddbe d1db 0a3d fdff 94bd 4487 803d
000000e0: 03a2 013e 1ece 3e3e 819f 423e 1cb8 c03c
000000f0: 8531 ebbd 834e b33d 46c1 0b3e de4e 69bd
00000100: 34f4 acbd 223f a53d 7024 5b3c ec5b 1c3e
00000110: f54f ad3d 008e cf3c 7438 54ba 64f7 aabc
00000120: 6fbd 923e 4491 77be adad 7cbe 1f5e 633e
00000130: 7ea1 23be ef46 783c 2e96 bf3d c21a a83d
00000140: 6b42 3bbd 2b4c cd3b 4be2 843d 64cd d4bc
00000150: d421 c9bd 4aac 843d a580 ddbd 3d90 adbd
00000160: c96c a0bd 0fe3 08bb 1f3f e0ba 9c66 aa3d
00000170: 3908 85be 0b8f 683e a22a 783e 6327 9abd
00000180: a9ab 023c 6878 01be e838 06be a512 d0bd
-0.12336215 0.19650921 -0.038118754 -0.19909602 -0.304676 0.01645308 -0.17557512 -0.21189508
-0.06635004 -0.17106949 -0.121069245 -0.018332094 -0.01715757 -0.09706894 -0.102141686 0.18985261
-0.11715553 -0.1215723 -0.19959602 0.08288415 -0.012877584 -0.35333216 0.2533317 -0.13363655
0.08115695 -0.15166333 0.09400917 0.32692757 0.3568124 0.09037903 -0.093485795 -0.10299897
-0.20932546 0.21310972 0.26837054 0.30011773 -0.3448356 -0.12803487 0.09296291 -0.22825971
-0.009777199 0.09006734 -0.20807888 0.6696683 0.6297892 0.61424196 -0.55506593 -0.19485536
0.21187666 -0.36364555 0.12595427 0.098816164 -0.43216553 0.03390104 -0.072753884 0.062758
0.12659459 0.18633315 0.19006158 0.02352529 -0.114840545 0.08755209 0.13647947 -0.05695998
-0.084450155 0.08068682 0.013375387 0.1526944 0.08462516 0.025336266 -0.00080955704 -0.020869918
0.2866015 -0.24176508 -0.24675627 0.22203873 -0.15979573 0.015153631 0.093548164 0.08208229
-0.045717638 0.0062651834 0.064884745 -0.025976844 -0.09820905 0.06478174 -0.108155526 -0.08474777
-0.07833249 -0.002088729 -0.0017108655 0.083203524 -0.25982836 0.22710817 0.24235013 -0.07527044
0.007975497 -0.12643588 -0.13107646 -0.10159806

transformer_encoder.layers.0.self_attn.out_proj.bias f4 [10]
00000000: b577 64be bf7f a3bd 8857 263e 8477 c43e
00000010: bf9a d73e 5bc3 bc3d 5d9a c4bd 8e15 72bd
00000020: 4cca 30be 8237 553e
-0.2231129 -0.0798335 0.16244328 0.38372433 0.4211025 0.092169486 -0.09599755 -0.059102587
-0.1726467 0.20821956

transformer_encoder.layers.0.linear1.weight f4 [10, 10]
00000000: db23 b8bd c94d 9dbe 6dcc df3c 6879 88bd
00000010: 5bf1 3abd e6fb aabe 2643 cfbd cef4 c4bd
00000020: 512e 7d3e 74d0 33be 05b1 673e d39a ebbd
00000030: 5501 19bb 8a7a 09bd b199 4a3c 7987 973d
00000040: aef0 72be c0e9 63be 0355 e23d e8cd d9be
00000050: c307 b43c 2be0 513e 5541 06be b113 7a3d
00000060: 31dc a73d 012c 693e 924e 51be cd40 d63e
00000070: 3411 003e ff1a 90bd 584f 51be 6cc0 cabd
00000080: 37dd f03d 200a 54bd 35e7 8c3d 1148 423e
00000090: f5fe bcbd 16bc a9bd 09e4 4cbd 1cb4 093f
000000a0: 9e02 763d bf10 15bc 48f8 263e 5107 32bb
000000b0: bb7b b53b a66c e2be e21c 1b3d ea6c 683d
000000c0: 8919 1e3c f40e 953d 0199 07bf ad42 d63d
000000d0: ec49 883d b8e5 4c3e 94d4 2bbf cde3 523e
000000e0: 6e83 96bd 4dd3 0abe a162 d2bd cc51 253f
000000f0: e33d 0fbe 0bc6 4d3d cfa8 bdbd 39c5 bcbe
00000100: 52b0 9f3e 3b90 f4bc 3e57 c83b 3af1 fbbd
00000110: b411 8bbb 5d7d 503e 4f15 acbd e83c 24be
00000120: 4c52 a23e 59d9 093d 7411 1c3d 614f 6abe
00000130: 0515 1a3e 1a83 62be 9aba 9a3d d407 6f3d
00000140: 4f44 e7be 2cc1 4d3e dd35 e13d 1dcd 57be
00000150: c3f6 80be f411 703e cd9e c03c 0178 e6bd
00000160: 26bb 3f3d fff5 603f 9734 55be 81d5 993d
00000170: 71db 6bbe d9b3 bbbd b98a a8bd 2113 9dbd
00000180: 2822 ecbd b135 a53e 3a99 c03c 54d4 ccbe
-0.08991214 -0.30723408 0.027319157 -0.066637814 -0.04564033 -0.33395308 -0.101202294 -0.09617005
0.247247 -0.17559987 0.22626121 -0.1150414 -0.0023346741 -0.033564128 0.012365744 0.07398886
-0.23724625 -0.22257137 0.11051371 -0.42539907 0.021976357 0.2049567 -0.1311086 0.061053935
0.08196295 0.22770692 -0.20440128 0.41846314 0.12506562 -0.07036399 -0.20440423 -0.09899983
0.117609434 -0.05176747 0.06880037 0.18972804 -0.09228317 -0.08287828 -0.05002216 0.5379045
0.06006109 -0.009098231 0.1630565 -0.0027165005 0.0055384315 -0.44223517 0.03786934 0.056744494
0.009649643 0.07278243 -0.5296784 0.10461936 0.066547245 0.20009506 -0.67121243 0.20594712
-0.07349287 -0.13557167 -0.10272718 0.6457794 -0.13988452 0.050237697 -0.09260713 -0.3686922
0.3118921 -0.02985393 0.0061139157 -0.1230187 -0.0042440537 0.20360322 -0.08402502 -0.16038859
0.31703413 0.033654545 0.038102582 -0.22881843 0.15047081 -0.22120324 0.07555123 0.058357075
-0.45169303 0.2009322 0.10996602 -0.21074338 -0.25188264 0.23444349 0.023513222 -0.11253358
0.046809338 0.8787536 -0.20820843 0.07511426 -0.23032929 -0.091651626 -0.08229584 -0.07669664
-0.11529952 0.32267526 0.023510564 -0.40005744

transformer_encoder.layers.0.linear1.bias f4 [10]
00000000: 497b 04be 24d0 7abe a1c6 85be a8c2 ccbe
00000010: 85ab 71bd 3ea6 2f3c 5d99 a4be 2d88 6fbe
00000020: 7352 32be f641 a33e
-0.12937655 -0.24493462 -0.26128104 -0.3999226 -0.059001464 0.010720788 -0.32148257 -0.2339179
-0.17414264 0.31886262

transformer_encoder.layers.0.linear2.weight f4 [10, 10]
00000000: 61c5 47bd bb6b 7ebd e91b 0e3d 306e 3fbe
00000010: 89c3 1d3e 28ad 89bd 3531 b5bd 4980 943e
00000020: 3c3d 14be 5b26 1a3e 0539 85bd f44d 7d3e
00000030: afa9 2ebe b35e 813d e5e6 bdbb 657f af3b
00000040: fe7d d8bc c93c 243e 2aeb cebc 7d57 dd3b
00000050: 46e1 b73d b792 593e eab6 dc3d dafa bc3d
00000060: 6e6f c3bd f541 133c 44d4 a2bc dfb6 5dbe
00000070: 7f3d e0bc ed67 ef3c d8f1 eabd b9dc 17be
00000080: 6976 0cbe c442 113f 5e36 80be 8c41 a73e
00000090: 04ba cb3e 7293 6dbe 91c3 423f 1b1d 19be
000000a0: 1fd4 d9bd abbe 21be 6cc3 8fbe 63bb e63e
000000b0: 224d 5cbe 0ca0 7d3f 4d54 bd3e 3628 e7be
000000c0: 6e0b 233f a339 4ebe aa1c f4bc a311 8b3d
000000d0: 76d7 9f3d 6840 043d 36d0 8ebe 5d22 303c
000000e0: b29f 7abc 8e84 2a3e a6e9 06bb b95f b7bd
000000f0: 4edd f53d 3710 153e c072 883c a528 c93c
00000100: b476 053e 51c6 4dbb 3255 a9bc a613 403d
00000110: 61fc 41bd e312 943d be44 453e c1c2 07be
00000120: 5a75 f13e 368b 98bd 1f2e 333e 2189 dfbc
00000130: 32f0 64bd c072 2d3e e4dc bdbd 5990 2bbe
00000140: 78f2 383d beed 4bbe 0673 723c 2930 43bb
00000150: e965 173d 7914 3dbc afa3 fcbb 347e 39bd
00000160: 1fce c5bc fb38 3b3c fd06 6fbe b994 26be
00000170: 33e4 86be a8f4 babc 0889 0c3e e061 e93b
00000180: b4fc 803d 8841 6abe 041c aa3d 7ea9 e53d
-0.04877222 -0.06211446 0.034694586 -0.18694377 0.15406622 -0.0672248 -0.08847276 0.29004124
-0.14476484 0.15053694 -0.06505016 0.24736768 -0.17056917 0.063168906 -0.005795347 0.005355763
-0.026427265 0.16038813 -0.02525862 0.006754814 0.089785144 0.21247374 0.107770756 0.09227534
-0.09542738 0.008987893 -0.019876607 -0.21651791 -0.027373074 0.02922436 -0.11471909 -0.14830293
-0.13717045 0.567425 -0.2504148 0.32667196 0.39790356 -0.23200777 0.7607966 -0.14952509
-0.10636162 -0.1579539 -0.28078783 0.4506484 -0.21513799 0.9907234 0.3697838 -0.45147866
0.63689315 -0.20139174 -0.029798824 0.06790473 0.07804768 0.032287985 -0.27893227 0.01075038
-0.015296863 0.16652128 -0.0020586043 -0.089538045 0.12005101 0.14556967 0.01665628 0.024555514
0.13033563 -0.0031398723 -0.020670507 0.04689374 -0.047359828 0.07230165 0.19264504 -0.13257886
0.47159845 -0.074484274 0.17498063 -0.027287068 -0.05589313 0.16938305 -0.09270647 -0.16754283
0.04515311 -0.1991491 0.014797932 -0.0029783344 0.036962423 -0.011540526 -0.0077099423 -0.045286372
-0.024146138 0.011427159 -0.2334251 -0.1626767 -0.26345977 -0.02282174 0.13724148 0.0071222633
0.06298199 -0.2287656 0.08306125 0.11213969

transformer_encoder.layers.0.linear2.bias f4 [10]
00000000: 598f 3d3c 7e6d ddbb a4ba 0abb 33cf c0bc
00000010: e317 b53c 7074 10bb 2aa2 e5bb 8ec5 3b3d
00000020: b656 ff3b ba04 ddbc
0.011569821 -0.0067574373 -0.0021168375 -0.0235363 0.022106117 -0.0022042058 -0.007007857 0.0458427
0.007792319 -0.026979793

transformer_encoder.layers.0.norm1.weight f4 [10]
00000000: 2eb6 8f3f d918 523f e56d 383f 31dc b43f
00000010: 5f24 b03f 6188 493f e39b 453f f6c2 6c3f
00000020: 171f 603f 388a 9b3f
1.1227472 0.82069165 0.72042686 1.4129697 1.37611 0.7872372 0.7719099 0.92484987
0.8754744 1.2151556

transformer_encoder.layers.0.norm1.bias f4 [10]
00000000: c296 c5bb 5ba4 ec3d fd4d 0fbd 6b83 4dba
00000010: bc20 e4bd 7a2a 2d3c e364 72bc b97a 3ebc
00000020: ee77 24bd b1ea 58be
-0.0060299346 0.11554786 -0.034986485 -0.0007839712 -0.11139056 0.010569209 -0.014794561 -0.011625939
-0.040153436 -0.21183278

transformer_encoder.layers.0.norm2.weight f4 [10]
00000000: 51b7 683f a469 703f 26ee 673f 50fd c03f
00000010: f333 ae3f c24e 5e3f bd6d 873f 11d3 593f
00000020: 4f36 753f 5a98 653f
0.9090472 0.93911195 0.9059776 1.5077305 1.3609604 0.86838925 1.0580364 0.85087687
0.95785993 0.89685595

transformer_encoder.layers.0.norm2.bias f4 [10]
00000000: c31c 34be 72dd 67bc e796 43be c470 5b3e
00000010: 8669 7b3e 0831 88bb ac8e 3cbe 4035 0abe
00000020: e520 d2bd e8e6 20be
-0.17589097 -0.014151918 -0.19100533 0.21429735 0.24551973 -0.0041562356 -0.184138 -0.13496876
-0.102601804 -0.15713084

transformer_encoder.layers.1.self_attn.in_proj_weight f4 [30, 10]
00000000: 1531 c33e 1a90 dabc 6802 e83c 8205 913e
00000010: d72a 71bc b342 37be a33a 973c 6600 94be
00000020: e9c5 b2be 1991 dcbd dda7 23bf 9847 25be
00000030: 0f48 733e 6f51 b53d c59b b1bd 3afb 163f
00000040: c881 c5bd 7b50 98be d69e c4bd c62a db3e
00000050: f2c3 0cbf a65e 973e 25a3 f73e 75a5 333c
00000060: 1bd7 443b aa56 e6be c125 f7be a7c3 c33e
00000070: c4ce ba3e dc23 953e 1555 f83e f6f0 cb3d
00000080: 46ec 09bd aa8d 203e ba43 f83c 12d8 bbbe
00000090: 62f0 a23d 2038 e5be 8797 f63c 6958 adbe
000000a0: d27d 91be bd8c a83e 1ef9 c9be 7203 3d3d
000000b0: 5bb9 aabd 6920 65bf 050d 14be 8e2c 423d
000000c0: fc1b fd3e 9e80 903e 04e3 67be c9b8 373f
000000d0: 16d5 403e 848c d83c f9cd 8bbe d5d4 913e
000000e0: 25b8 d73c 3834 16be 93d5 a3be 70e9 243f
000000f0: 4587 123d eb42 583f f78f 01bf 2319 053e
00000100: 3a1a 08be dcbe 16bf b3bd 82bd 5182 8ebe
00000110: f396 a03e e49d ecbd b486 a13e 640a 283e
00000120: 1245 b43e 2c6b fe3d b092 003e 91e5 d63d
00000130: 1842 d5be e63d e63e 34f7 bb3d ebb2 3fbf
00000140: fbb4 543f 82d7 d73e 88df bcbe bf1b 88bd
00000150: 775c 243e f328 a23e 54b2 ad3e 802c debe
00000160: cb50 4ebe 6d91 4dbf 3d53 083f 7a8a 96be
00000170: 4b11 b63e 0ce7 543e f5ed 1dbd bbb5 9cbe
00000180: c3f0 ed3e 144c c63e 94f0 a23d 0d4c a9be
00000190: 8011 df3e db6f 2a3e 2f44 2ebe 7958 dcbd
000001a0: 2d97 b8be eb3b f0bd 69b3 87bd d075 4bbe
000001b0: f48e b2bd 84bc 7ebe 0bbc aebe 4794 92be
000001c0: 954a 873e cc4a c0be 3e87 143f 3f51 303f
000001d0: 8345 01bf 275a 243f 8b0a 64be 0ffa 74be
000001e0: 6188 d9bd 9d25 5dbe 9c30 253e ece6 353f
000001f0: 4bf7 523e 2b37 4cbd f72f 25bf 2f2a 5e3d
00000200: 61e5 583c c8af 4ebe 0f47 4b3e db82 1abe
00000210: fa15 35be 3430 103e cd86 9abe c774 04bf
00000220: db51 b63e 2f6d 0abf 7fa2 b73d cae4 82be
00000230: 4068 64be 39c0 a8bd 7d83 e3be 8e87 953e
00000240: d56a bc3d f348 6dbf 2a44 15be 961d 8f3e
00000250: c92d 893e 0be0 9d3e 751f 6b3e e89f 103f
00000260: eb65 bdbe b73e d43e 55ff 44bf 4ca9 83be
00000270: 47e5 81be 876c 5abe 18c7 eebe 2406 9b3e
00000280: 7cf2 833e cbfe 2b3f f54c 25bd 2128 563d
00000290: 271d 9e3e 418f 09bf d422 df3e 9f05 47be
000002a0: bbb8 a63e d9e5 af3c b2eb 1f3e e781 b63e
000002b0: 5244 123f 9b9f 14bf 62d7 fc3d 1344 ba3d
000002c0: 8e18 f9be a309 cc3e fc5b 46bd 02b7 25bf
000002d0: d202 3a3f c63a 083f 8af4 ad3e 0bc2 89be
000002e0: 9216 b13e 84b8 d23e 5498 523f 6a5c a7be
000002f0: 973d e3be c660 80be b1f3 83be eb9b 5dbe
00000300: 0f61 fabd 0ada 2abe ee5d 0b3f 7e01 e33d
00000310: 9cc9 3dbe 8721 6abc f92d 31bd c49e f5be
00000320: 6339 903d 8d1d d83e 5aee b0be a9ef 67be
00000330: 69d3 8bbe 353a 03be cbbb 193e b39f 663e
00000340: ac19 653d e793 9abd 3f2c 6b3e 7bb9 4ebe
00000350: 7863 a1be c727 81be c7b6 b3be dd1b 1b3e
00000360: 7e31 b5bd 3525 cdbe 77dd 23bc 6018 c4bd
00000370: bbe4 363e 6e98 b33e 7c7c 153e dd6b b7bd
00000380: 31ae 963d 7da4 fcbd 2765 6c3c 90d6 60be
00000390: 7750 1c3e 33cb 70be 377d 173e 01b8 b13e
000003a0: a189 9bbe d489 8c3e 6860 dd3d c256 98be
000003b0: e74e 8d3c 82c5 283e 14a5 c2be 7304 673e
000003c0: a6f0 bbbe 9a6c ed3e 97d4 9b3e a833 3cbd
000003d0: eccd 773e c401 3e3e ed24 84bd 5020 00be
000003e0: 8725 853e 094d 3f3e 0ecd c1be ead4 a8bc
000003f0: 8f85 6dbe 8183 bb3e c952 61be ae31 0b3e
0.38123384 -0.026680041 0.02832146 0.28324515 -0.0147196865 -0.17896537 0.018460577 -0.28906554
-0.34916618 -0.10769863 -0.63928014 -0.16140592 0.23757957 0.08853423 -0.08672289 0.5897709
-0.096438944 -0.29748902 -0.09600608 0.4280607 -0.5498649 0.295644 0.48366657 0.010964741
0.003003544 -0.44987994 -0.4827099 0.38235208 0.36485875 0.2912892 0.48502412 0.09958069
-0.033672594 0.1567904 0.030305732 -0.36688286 0.07956006 -0.44769382 0.03010155 -0.33856514
-0.28416306 0.32919875 -0.39447874 0.046145864 -0.08336135 -0.8950258 -0.14458092 0.047405772
0.49435413 0.28223127 -0.22645193 0.71766335 0.18831286 0.02643419 -0.27305582 0.2848269
0.026332924 -0.14668357 -0.31998882 0.644187 0.035773534 0.8447711 -0.506103 0.1299787
-0.13291255 -0.5888498 -0.063838385 -0.278338 0.31365165 -0.11553553 0.31548083 0.16410214
0.35208946 0.12422785 0.12555957 0.10493005 -0.41651988 0.449691 0.0917801 -0.7488238
0.83088654 0.42156607 -0.3688929 -0.06645917 0.16050898 0.31671867 0.33925116 -0.43393326
-0.20148008 -0.8030003 0.5325201 -0.29402524 0.35560068 0.20791262 -0.03855701 -0.306074
0.4647275 0.38729918 0.07956043 -0.33065835 0.4356804 0.16644232 -0.17018197 -0.10759062
-0.36052838 -0.117301784 -0.06626017 -0.1986916 -0.087186724 -0.248766 -0.3412784 -0.28628752
0.2642409 -0.37557065 0.58018863 0.6887397 -0.5049669 0.6420006 -0.22269647 -0.23923515
-0.10621715 -0.2159638 0.16131824 0.71055484 0.20602147 -0.0498573 -0.64526314 0.05423945
0.013238282 -0.20184243 0.19851325 -0.1508898 -0.17684165 0.14080888 -0.3018097 -0.5174069
0.35609326 -0.5407285 0.089665405 -0.25565177 -0.22305393 -0.082397886 -0.44436255 0.29204983
0.09200064 -0.92689437 -0.14576784 0.2795226 0.26792744 0.30834994 0.22961219 0.56494
-0.3699182 0.41454098 -0.76952106 -0.257151 -0.25370237 -0.21330462 -0.4663627 0.30278122
0.25770938 0.6718566 -0.040356595 0.052284364 0.30881616 -0.53734213 0.4358126 -0.19435738
0.32562813 0.021471905 0.15617254 0.35645983 0.571355 -0.5805604 0.123457685 0.090950154
-0.48651546 0.39851102 -0.048427567 -0.6473237 0.72660553 0.5321468 0.3397563 -0.26905856
0.34587532 0.411564 0.82263684 -0.32687694 -0.44382927 -0.25073832 -0.2577186 -0.21641509
-0.12225544 -0.16684738 0.544402 0.11084269 -0.18533939 -0.01429022 -0.043256734 -0.4797269
0.07042196 0.42210045 -0.34556848 -0.22650017 -0.2730973 -0.12815173 0.15013044 0.22521858
0.055932686 -0.075477414 0.22966097 -0.20187943 -0.315212 -0.2522566 -0.35100386 0.15147348
-0.088473305 -0.4006745 -0.010001532 -0.09574962 0.17860691 0.35077232 0.14598268 -0.0895612
0.07357443 -0.12336061 0.0144284135 -0.21956849 0.1526507 -0.23515014 0.1479386 0.34710696
-0.3037844 0.27448905 0.10809404 -0.2975369 0.017249538 0.16481593 -0.3801657 0.22560291
-0.36707038 0.4637192 0.3043563 -0.0459477 0.24199647 0.18555361 -0.064523555 -0.12512326
0.26005194 0.1868173 -0.37851757 -0.020609338 -0.2319548 0.36623767 -0.22004236 0.1359317

transformer_encoder.layers.1.self_attn.in_proj_bias f4 [30]
00000000: 916a 213e 40c3 9ebd bbdd 72be acc3 a93d
00000010: f8c7 d3bd 1875 4ebd 43cf 00be 8ddd d43d
00000020: 062b 0b3e 52e3 b1be c613 5a3a 1fbd b6b9
00000030: 7e86 0fbb 8f14 783a 5d33 293a 0130 e1b7
00000040: f36b 2ab9 ad99 943a 4e8e ce3a a729 a6ba
00000050: 8e6f 163e 43e7 b6bb ce48 7fbc 3fb1 2e3c
00000060: 0785 4ebe 86cf 3dbe 9e99 e93d 6365 59bd
00000070: 9e19 86bd 6f04 0a3d
0.15763308 -0.07752085 -0.23717396 0.082892746 -0.103408754 -0.050404638 -0.12579064 0.1039382
0.13590631 -0.34743744 0.00083189865 -0.0003485465 -0.0021900232 0.00094635127 0.0006454492 -2.6844444e-05
-0.00016252678 0.0011337303 0.0015758963 -0.0012677208 0.14690992 -0.0055817678 -0.015581323 0.010662376
-0.20167933 -0.18536195 0.11406253 -0.053075206 -0.06547855 0.033695634

transformer_encoder.layers.1.self_attn.out_proj.weight f4 [10, 10]
00000000: 03c7 dbbd a55c 0d3e 83c6 f9bd e44e 62bc
00000010: 4ba6 acbe 166c 91be 7c1f b2be 5ae2 a2be
00000020: 7725 27bd fe7d 37be 9a69 e33d 2d91 723e
00000030: 516a b13e 0dc0 22bd c5e4 f5bc f117 903e
00000040: 4435 c3be 8561 d73d 33fc 7abe d33e 9a3e
00000050: e3bf d53d d735 afbe bec7 9d3e 3d86 45be
00000060: 4968 433d 95ef 24be c98a aa3d 4ee4 083f
00000070: 6522 9a3e 7690 393e 6865 a6be d127 c9bb
00000080: d44f 08be 60e5 83be ee61 f33d 6dbb eb3e
00000090: 6858 d7be 3a9d 983d 590f db3e c363 a1be
000000a0: a2a0 71be 8238 233e b081 bfbd 4a1a 0fbe
000000b0: d596 b83e 8cc4 ec3e e60c aabe b5c0 8a3e
000000c0: 8020 a93e 18e1 9cbe 5821 9ebd 3b2c 4b3e
000000d0: 44a2 c8be b904 12bc cdf4 e2bd 2f12 0d3e
000000e0: e594 e33b b0b3 14bc d267 be3e b1ba 653e
000000f0: 3a6e 20be 729e ea3a 51bc 023e 0738 ae3d
00000100: df8c 3bbe 3a79 6dbc eb61 9f3e 3800 56be
00000110: 00b2 9b3d c4dd 7bbd 7976 333d ab50 21be
00000120: cf93 30be 5d14 5dbe 7fd7 cebe 7273 b1bc
00000130: 37cc 06bd ddc2 c93d 2ea7 14be c7fd 193d
00000140: ebed fabd bb66 0a3e c521 0b3e bb91 fcbd
00000150: ab7d 01bc 9ef6 633e 3ab3 503e 79c7 a33d
00000160: 2294 c3be 4069 00bb 6b43 433e 2be1 9a3d
00000170: 2496 91be d432 8c3e 270c 1a3b 9bd3 16be
00000180: ddf6 25be 1908 5ebd 8559 98be 6074 d1be
-0.10731318 0.13804872 -0.12196066 -0.013812754 -0.3372062 -0.28402776 -0.34789646 -0.31813318
-0.040807214 -0.17919156 0.11104126 0.23688193 0.34651425 -0.039733935 -0.030016312 0.28143266
-0.38126576 0.10516647 -0.24510269 0.30126056 0.1043699 -0.34220764 0.30816454 -0.19289489
0.047706876 -0.16107018 0.083272524 0.53473365 0.30104366 0.18121514 -0.32499242 -0.0061387797
-0.13311702 -0.25760937 0.11883913 0.46041432 -0.42059636 0.074518636 0.42785147 -0.31521425
-0.23596433 0.15939525 -0.09350908 -0.13974872 0.36052576 0.46243703 -0.33212966 0.2710015
0.33032608 -0.30640483 -0.077212036 0.19841091 -0.391863 -0.008912259 -0.11081848 0.13776468
0.00694524 -0.009076044 0.37188584 0.22434498 -0.15667048 0.0017900004 0.1276715 0.0850678
-0.18315457 -0.014494235 0.31129393 -0.20898521 0.0760231 -0.06149079 0.043814156 -0.15753429
-0.17243885 -0.21589799 -0.40398785 -0.021661494 -0.0329096 0.0985162 -0.14516899 0.037595537
-0.122524105 0.13515751 0.13587101 -0.123324834 -0.007903497 0.22262046 0.2038087 0.07997031
-0.38198954 -0.0019593984 0.19068687 0.07562479 -0.2843486 0.2738253 0.0023505779 -0.14729159
-0.16207452 -0.05420694 -0.29755798 -0.409091

transformer_encoder.layers.1.self_attn.out_proj.bias f4 [10]
00000000: 37ba 5d3e 9923 3b3d d8f8 7a3d 8cc5 1cbe
00000010: 44b7 0bbe e738 323d b0f4 283d 05d5 f83d
00000020: b9d6 e43c 5fa6 d43d
0.21653067 0.045688245 0.061272472 -0.15309733 -0.13644129 0.043511298 0.041248977 0.12150005
0.027934419 0.10383295

transformer_encoder.layers.1.linear1.weight f4 [10, 10]
00000000: cbc9 2bbe a180 60bd b025 883e bc76 e4bd
00000010: f3c9 88bd ee79 fdbe 239c 37be 41b7 92bd
00000020: fa72 bd3e b477 f5bd 34e4 7e3e 85a0 743a
00000030: e0f7 f33d 57d4 77be 1151 c5bd 2b95 e93b
00000040: 8f83 9dbe e23c 3bbe bca9 b7bd 72b2 7ebe
00000050: bb64 2a3e becf 223e 8791 323e f05e 12bf
00000060: 491d 66be d386 09bd 86f1 953d bac0 953e
00000070: 60d5 ac3e 952a 723d 7c41 c73e 1241 b3be
00000080: a391 cdbd 4a5f 303d 5766 233d 0e3d dd3d
00000090: 54a6 1e3b 5e04 56be c718 aabd 825c 743e
000000a0: 27d7 e0bd f2e2 e93d a633 163e f979 c7bb
000000b0: 5c98 0dbb 6919 b1be feb7 0c3c 2092 903e
000000c0: c1f6 d63d 9948 1d3d a4cc 5bbe 895a b83d
000000d0: 4b2e 77bd 549e 083e 8cce 35be 3d2b 553e
000000e0: 01de 9e3d 1e31 17be bf82 ae3d 1297 fa3e
000000f0: 6051 3abd 17fa d93c cae8 ed3b 3861 b5be
00000100: 9516 693e 124e 0dbe c0ca 2e3d b842 84bd
00000110: fa67 31ba 28c0 cc3d 27c8 9e3e 36a7 4bbe
00000120: f370 1c3e 2ca8 353d bbf0 193d 57bb 37be
00000130: 9ed0 2e3d 24da b2be 6009 af3d d16b 0c3e
00000140: 801e a5be 1c34 b33c eb30 443e cee1 03bc
00000150: 318f 253b e79a 933e 9dc6 013a 55b5 11be
00000160: 395d 23bd 00a2 373f 1bb2 bcbd 7666 6d3e
00000170: 9385 3bbe deff e7bd ee5c 14bd f4fa 8fbe
00000180: 1b7a d33d e065 9d3e d590 2abe 5f18 16bf
-0.16776197 -0.05481017 0.26591253 -0.11155459 -0.06679144 -0.49507087 -0.17930655 -0.07163859
0.37001783 -0.11985722 0.2489174 0.00093317806 0.11912513 -0.24202095 -0.09634603 0.007128378
-0.30764434 -0.18284944 -0.08967921 -0.24872759 0.16639988 0.1589956 0.17438327 -0.57176113
-0.22472109 -0.033575844 0.073214576 0.292486 0.33756542 0.05912264 0.38917148 -0.35010582
-0.100375436 0.043059625 0.03989252 0.10802661 0.0024208026 -0.20900103 -0.08305507 0.23863414
-0.10978537 0.114202395 0.1466814 -0.0060875383 -0.0021605706 -0.345897 0.008588789 0.28236485
0.10496283 0.038399313 -0.21464783 0.09001643 -0.060346883 0.13341647 -0.17754573 0.20817275
0.07757188 -0.1476483 0.085210316 0.48943383 -0.04548776 0.02660851 0.0072604166 -0.35425735
0.2276252 -0.13799313 0.042673826 -0.06458038 -0.0006767508 0.099975884 0.3101208 -0.19888005
0.15277462 0.044349834 0.037583094 -0.17942558 0.04267942 -0.34932053 0.0854671 0.13713004
-0.32249832 0.021875434 0.19159286 -0.0080494415 0.002526235 0.2882912 0.0004950555 -0.14229329
-0.039883826 0.7173157 -0.092136584 0.23183617 -0.18312673 -0.113281 -0.036221437 -0.2812115
0.10326024 0.30741787 -0.16656812 -0.5863094

transformer_encoder.layers.1.linear1.bias f4 [10]
00000000: 15ad 72be 4f79 acbe 381c 8abd de3d 2cbe
00000010: 4f8d 28bc 231c 83be afd4 07bd 0b00 33be
00000020: 8db4 d8bd 93e4 0c3e
-0.23698838 -0.336863 -0.067436635 -0.16820475 -0.010287597 -0.25607404 -0.033161815 -0.17480485
-0.10581312 0.13759069

transformer_encoder.layers.1.linear2.weight f4 [10, 10]
00000000: fa14 27bc 8164 123e 4e17 11be 7817 8dbe
00000010: e0b7 14bd 045c efbd ed9d a1bd c8ef 5f3e
00000020: 22a5 5e3d ad25 0b3d afe0 13bc 3078 793d
00000030: e260 59be c570 1f3e eba8 90bd 6858 3bbd
00000040: 7fcd 12bb 7a3e 193f 85f7 ce3a 214e bc3d
00000050: 64dc a83e f33a 363e b580 25be e59a 043e
00000060: c690 2c3e d487 88bc 9b43 17bc 6847 93be
00000070: aa87 dc3c 0539 033e 9c36 12be 486b 19be
00000080: 48bd 323f f364 45be 4823 87be 8281 763e
00000090: 4bae 873e 5e83 31be a83c 1b3f c063 a9bd
000000a0: 1f1c 5cbe fbe2 46be efff 943e 0663 dbbe
000000b0: d0f8 94bd 3316 1a3f 2d4c fdbc 3dce a2be
000000c0: 7f89 ca3e a7cb 13be 9cf7 86be 42e7 423c
000000d0: 2342 05bd 4b28 b73c d174 c4be 8ecc e8bd
000000e0: 8aee f0bc 58ba 2bbe 0ab0 303b 800d e1bc
000000f0: 2e0c 9dbc 4485 443e 4743 80be 97f1 a8b9
00000100: e65f a23d 5772 d1bd 3953 28bc f60f e7bd
00000110: 628d 04bd d83b 413e 9c68 c13d 9f1d 193e
00000120: bc73 2bbd 40a3 e23c 4fbb 383e 19e8 d33b
00000130: 8d8e a63c 8dad b5bd 93ff 04bd 71d3 afbe
00000140: 717e 753e dd82 87be e34a 8bbc 5e93 b73d
00000150: bbc5 923c 33c2 febc f3e3 f3ba 98eb 2abe
00000160: a1d2 02bc 3546 093d 6598 61be 8ea2 22be
00000170: 529a 9cbd d929 afbd e630 943c 02d5 b2bc
00000180: 25d2 713c d4bc 893d 6872 a6bd 2801 d3bb
-0.010197872 0.14296152 -0.14169046 -0.27556968 -0.03630817 -0.116874725 -0.0789145 0.21868813
0.0543567 0.033971477 -0.009025737 0.060905635 -0.21228364 0.15570362 -0.070634685 -0.045738608
-0.0022400317 0.59860957 0.0015790319 0.091945894 0.32980645 0.17795925 -0.16162379 0.12949713
0.16852102 -0.01666633 -0.009232427 -0.28765416 0.026920158 0.1281472 -0.14278644 -0.14982331
0.6982007 -0.1927679 -0.26394105 0.24072841 0.26500162 -0.17335269 0.6063943 -0.08270979
-0.21495102 -0.19422524 0.29101512 -0.42848986 -0.0727402 0.60190123 -0.030920113 -0.31797972
0.39558026 -0.14433156 -0.26360786 0.0118959565 -0.032533776 0.02235808 -0.38370374 -0.11367141
-0.02941062 -0.16770303 0.0026960396 -0.027472258 -0.019170847 0.19191462 -0.2505133 -0.00032223455
0.079284474 -0.10226887 -0.010273748 -0.11282341 -0.032361396 0.18870485 0.09443781 0.14952706
-0.04185842 0.027665734 0.18040203 0.006466877 0.020331645 -0.08870993 -0.032470297 -0.34341004
0.23974015 -0.26467028 -0.017003482 0.08963655 0.01791655 -0.03109846 -0.0018607363 -0.16691434
-0.007984788 0.03351422 -0.2203079 -0.15882322 -0.07646622 -0.08552904 0.018089723 -0.021830086
0.014759575 0.06725469 -0.0812729 -0.006439347

transformer_encoder.layers.1.linear2.bias f4 [10]
00000000: 89dc 813c f0ca 44bc 4168 1cbc 21fb c23d
00000010: b3a1 033e 3125 133b c1d9 b83b f623 f039
00000020: b9d7 84bb 291e 723c
0.01585223 -0.012011275 -0.00954634 0.09520555 0.12854652 0.0022452588 0.0056411927 0.0004580316
-0.0040540365 0.014777699

transformer_encoder.layers.1.norm1.weight f4 [10]
00000000: bf87 3e3f 0557 5d3f b869 623f dac0 b73f
00000010: 75ad b43f d348 513f 42ce 873f 722a 483f
00000020: f0ad 583f ecc3 283f
0.7442588 0.86460906 0.88442564 1.4355729 1.4115435 0.81751746 1.060982 0.78189766
0.8464041 0.65923953

transformer_encoder.layers.1.norm1.bias f4 [10]
00000000: 6d79 8ebe 7a6a 30be 92ca 17be e1fb a43e
00000010: 11e6 953e 1939 013e 9754 a2be ffd0 16be
00000020: 2453 b8bd 2a4c 973d
-0.27827016 -0.17228118 -0.14823368 0.32223418 0.2927709 0.12619437 -0.31705162 -0.14728163
-0.09000233 0.07387574

transformer_encoder.layers.1.norm2.weight f4 [10]
00000000: e1d3 813f 73c9 9f3f 654e ba3f 025c 573f
00000010: 31a3 4b3f a835 ac3f 6230 9d3f f1ef a53f
00000020: 5773 c63f 952a 933f
1.0142785 1.2483352 1.4555174 0.8412477 0.79545885 1.3453875 1.228039 1.2963849
1.5503949 1.149737

transformer_encoder.layers.1.norm2.bias f4 [10]
00000000: 9e87 373d 365f 223e 1f3c af3d 0111 013b
00000010: faec 813b 0667 243e a203 9b3b 7d2b eabd
00000020: 4c69 0fbe 467f 2ebe
0.04480707 0.15856633 0.08556389 0.0019693973 0.0039650174 0.16054925 0.0047306577 -0.11434076
-0.14005011 -0.17040738

decoder.weight f4 [48, 10]
00000000: 26d3 913d 54c1 553e 71ed d4bd 86db b7bd
00000010: 9a10 c3bd 346a 93bd 5c76 43be 2d59 c8bd
00000020: 2b19 dabd 8afa d6bc e58a 963c d688 753e
00000030: 347f ba3c 66fa df3c b162 e23c 590b 523e
00000040: 3bdf fe3d f6fb 7dbe f759 0b3e e893 69be
00000050: da49 a1be 8390 d1bd a470 fcbc 80c1 e8bd
00000060: e040 fabd e18e 123e b9d0 073e 6eb3 95be
00000070: 446f cb3d abeb c0be f691 9c3c 4e34 82be
00000080: 8dd5 273d 54a9 f1bb 33f6 c6bb e330 a0bd
00000090: ca18 133d 98c9 283e c0a6 cdba 4b1a f83d
000000a0: dd01 2f3e 7139 163e c3d4 41bd d46c 41bc
000000b0: d2a2 3ebc 40a3 ecbd 68b5 30be 6f97 b73d
000000c0: d58e e8bd d151 2f3e 1ede 4abd 003a 003e
000000d0: dfca 683d 6ad0 313d 14dd 363d 8763 6a3e
000000e0: 04d5 4f3e 1148 54be 774b 333e 606b 6fbe
000000f0: 913f eabd 3abb bdbe bd4e 2abe da6f 943d
00000100: 180a 933d 1c2d d6bd a82a ce3e 89b7 ce3d
00000110: 7890 2e3e 36e7 173e 5775 24bd f174 9bbd
00000120: 3a4b 0abf 9d0a a13d 0b8b 913d 2d83 8bbe
00000130: 2138 723e 512f 943d 8c1d d73e 80a0 bb3e
00000140: 2f91 ddbd c298 da3e a173 a7be 5a7a 363e
00000150: 3ae2 393e 4ea8 77be d2b8 a53e 3f13 9cbd
00000160: 623e f53e 7c5e c03e 6793 a93d 2345 ed3e
00000170: 6fc7 28be 609e 9d3c 0ba1 ba3c d553 9bbe
00000180: 3dcd 243e aeb2 02bf 8aea 5a3e 2afe 1d3e
00000190: 00f2 0bbd 44bc ad3e 28ea dd3b 1201 c3bd
000001a0: 8170 d5bd 33f8 fabe 5169 f93e 4938 edbe
000001b0: e0ae 01bf 2093 1d3d 70ff 9f3e 40e8 5c3e
000001c0: 36bd ecbe ce71 c3bd 7a33 d3bd 9ede 0d3f
000001d0: bebc a83e 21c7 73be 00d4 1bbf 0903 2a3e
000001e0: 475d 713e c11c 8e3e 1b5e 00bd 935b b13c
000001f0: 20e3 b83c 56ad 2abc 47bf babd 6173 b6bc
00000200: 45a6 acbc 2e69 b03d da67 e23c dbe6 7d3e
00000210: 3b6b c83a 5791 cf3c 5c15 c23c c6b4 4d3e
00000220: 07c5 073e db42 7abe 3465 1a3e 0d15 6dbe
00000230: 447d acbe d0c8 16be ec52 84bd 9fac 31be
00000240: 439f 3ebe 8e0b d93d 2698 e93d 4cde a7be
00000250: ae75 aa3d 42df e1be b29f 99bd 3b6f 86be
00000260: 6347 263d aa3a b5bc 4a37 aabc 33f4 abbd
00000270: 75ff 6e3c bd53 173e 46c4 26bd 5d0d d53d
00000280: 99e4 773e f9f8 413e 46a9 3dbc 9e02 633d
00000290: c418 743d 861f a3bd 9d97 07be b9be 053e
000002a0: faf8 99bd 7d68 6d3e 8b1b 98bd 325d b93d
000002b0: 1f4d 983c 3fe4 bc3b 5791 703b 340d 493e
000002c0: 9d3a 343e 0b38 80be 631d 233e 58b6 8cbe
000002d0: b5c8 3dbe ee10 cebe 9196 4cbe aaba 9f3a
000002e0: 6ae9 46bb 9aff f4bd 4123 b93e c89c f43d
000002f0: c5dc 153e a76a f03d 9207 59bd 4250 16be
00000300: 2e89 19bf d014 673c 68a9 043b c589 9abe
00000310: b005 253e 7b1e 993d a54b d53e e7d4 a33e
00000320: be39 8dbe a800 8f3e 622e ffbe f0ff 8bbc
00000330: d825 ecbc a71c c2be e542 1f3e 02ca 30be
00000340: 16c0 c33e 8c08 653e 079d a03e d78f fb3e
00000350: 1e18 bdbd 8373 0d3e e54c 163e c2d8 8bbe
00000360: 5ff8 8d3e 1046 e9be 2725 ae3e 2be6 9d3e
00000370: 2016 5f3c e2b6 af3e 42f5 e7bc 1438 04be
00000380: 3cb7 12be feee 04bf 1dd1 fa3e 2053 e6be
00000390: d720 e9be 3b3f 513d b449 003f 1237 ab3d
000003a0: 1b47 ecbe c2cc f1bd 4d4b 01be 851a f53e
000003b0: add5 a83e 02e1 c5be 6544 17bf 810c 4f3e
000003c0: 34bc 703e 751f b83e 5141 96bb 5d45 023e
000003d0: 9559 073e acf2 3e3d 5ace 0cbd 6602 3b3d
000003e0: 7bb9 6c3c 13c0 1f3e 6234 fdbd 528f 273e
000003f0: de75 e0bd 40f9 cebd f357 e6bd 2884 d53d
0.071203515 0.2087453 -0.10396851 -0.08977418 -0.09524651 -0.07197991 -0.1908812 -0.09782634
-0.10649332 -0.026242513 0.018376777 0.2397798 0.022765733 0.027341079 0.02763495 0.20512141
0.124449216 -0.24803147 0.13608538 -0.22810328 -0.31501657 -0.102326415 -0.03081543 -0.11365032
-0.12219405 0.14312316 0.13263215 -0.29238456 0.099333316 -0.376798 0.019112568 -0.2543053
0.040975142 -0.007374922 -0.0060718297 -0.078218244 0.035912313 0.16483152 -0.0015689954 0.1211439
0.17090555 0.1467035 -0.047322046 -0.011805732 -0.011635499 -0.11554575 -0.17256701 0.089644305
-0.11355368 0.17121054 -0.049528234 0.12522125 0.056834098 0.04341165 0.04464443 0.22889529
0.20296103 -0.20730616 0.17509256 -0.23380804 -0.114379056 -0.37056905 -0.16631599 0.072478965
0.071796596 -0.10457823 0.4026692 0.100936 0.17047298 0.14834294 -0.040150966 -0.07590664
-0.54021037 0.078633524 0.071065985 -0.27248517 0.23654224 0.072355874 0.4201473 0.3664589
-0.10818707 0.4269467 -0.32705405 0.17820111 0.18152705 -0.24185297 0.3236757 -0.076208584
0.47899157 0.37572086 0.08280068 0.4634181 -0.16482328 0.019240558 0.02278187 -0.30337396
0.16093917 -0.51053894 0.21378532 0.15428987 -0.034166336 0.33932698 0.0067722984 -0.095216885
-0.10421849 -0.49017486 0.48713163 -0.46332005 -0.50657463 0.038470387 0.3124957 0.21572971
-0.46238106 -0.09543191 -0.10312553 0.5541781 0.329565 -0.2380643 -0.6087036 0.1660272
0.23570739 0.27756312 -0.031339746 0.021650111 0.02256924 -0.010417303 -0.091185145 -0.022271814
-0.021075377 0.086138114 0.02763741 0.24795096 0.0015290746 0.025337858 0.023691826 0.20088491
0.13258754 -0.24439566 0.15077668 -0.23152561 -0.3368932 -0.14725041 -0.064611286 -0.17351006
-0.18615441 0.10597907 0.11405973 -0.32786787 0.08323227 -0.44115645 -0.075011626 -0.26256737
0.040595423 -0.0221227 -0.020778317 -0.08396187 0.014587273 0.14778037 -0.040714525 0.104029395
0.24208297 0.18942632 -0.011576002 0.055422418 0.05959393 -0.07964997 -0.1324143 0.13061036
-0.07518192 0.2318439 -0.074271284 0.09050979 0.018591462 0.0057645137 0.0036707723 0.19633943
0.17600484 -0.25042757 0.15929179 -0.27482867 -0.18533595 -0.4024729 -0.19979312 0.0012186368
-0.0030351528 -0.11962815 0.3615971 0.11943966 0.14634998 0.11739092 -0.052985735 -0.14679053
-0.59974945 0.014104083 0.0020242576 -0.30183235 0.16115451 0.07476517 0.41659275 0.3199837
-0.27583116 0.27930188 -0.49840075 -0.017089814 -0.028826639 -0.37912485 0.15552862 -0.1726456
0.38232487 0.22366542 0.31369802 0.4913318 -0.092331156 0.13813595 0.1467777 -0.2731381
0.27728555 -0.45561266 0.3401272 0.30839667 0.013616115 0.34319216 -0.02831519 -0.12912017
-0.14327711 -0.51927173 0.48987666 -0.44985294 -0.45532867 0.051085692 0.5011246 0.08360113
-0.46148 -0.118066326 -0.12626381 0.47871795 0.32975522 -0.3864823 -0.59088737 0.20219614
0.23509294 0.359615 -0.004585423 0.12721772 0.13217767 0.04661815 -0.03437648 0.045656584
0.014448519 0.15600614 -0.12363507 0.16363266 -0.109599814 -0.101061344 -0.11247244 0.104255974

decoder.bias f4 [48]
00000000: 695e 6abc 2a9e 2bba 7cfe 8cbd 77bc 293e
00000010: 50bc 4b3d 6097 893c 6435 903d ed5b 9d3d
00000020: 7406 5e3d d535 223b 926a 3b39 1ea6 4e3a
00000030: 000a bd3d d10d c83c 55f1 a6bc b7eb 8e3d
00000040: 0b8b 5a3d 0fcc 07bc 1c91 1f3e 93dd f33d
00000050: 18b8 3f3c f52b 2a3e f8fd 3b3e ea53 823d
00000060: b472 d0bc 09fc 75bd e0bb bc3a ce1d 8fbc
00000070: c72c 7cbb e425 01be da05 e93d aade e53d
00000080: 694b 933c 68c0 3a3e 4db3 1a3e 8b9f de3d
00000090: d251 6c3d f625 bfba 1c13 033c bf6a 53bc
000000a0: 764f 333d f7cb dfbc 3993 8e3d f972 dd3d
000000b0: 7c24 2a3e 7f78 1a3e f91f ecbd 4bda e7bc
-0.014304736 -0.00065467006 -0.068844765 0.165758 0.049740136 0.016795814 0.070414335 0.07683549
0.054205373 0.0024751325 0.0001787341 0.000788303 0.09230423 0.02442065 -0.020378748 0.06978553
0.053355258 -0.008288397 0.15582699 0.11907496 0.011701606 0.16618331 0.183586 0.063636616
-0.02544532 -0.060054813 0.0014399253 -0.017470267 -0.0038478838 -0.1261211 0.11378069 0.112241104
0.017980294 0.1823746 0.1510746 0.10870274 0.057695217 -0.0014583457 0.0080001615 -0.012903868
0.04377695 -0.027318938 0.06961674 0.10812945 0.1661548 0.15085028 -0.11529536 -0.028302332
